libraries/cnn-vad/Resources/cnn_vad_model.tflite (tflite, 207948 bytes, 10 tensors)

model/Conv2D_1_bias f4 [20]
00000000: f4fa f13d d5ef 063d 63a8 6c3d b98a 19be
00000010: 742e 53bc 2223 11bc 3793 73bd b9ca 853e
00000020: e38b d0bd ab51 473c 5d9a 533e cca3 e83d
00000030: f0d5 773d 8acf ecbd 89eb 19be b664 a4bd
00000040: 3f43 a93d de81 493e 1972 ef3b 1b46 c83e
0.11815444 0.032943565 0.057777774 -0.14994325 -0.012889493 -0.008858474 -0.059466567 0.26131228
-0.10182931 0.012165467 0.20664354 0.11359367 0.06050676 -0.115630224 -0.15031256 -0.080270216
0.08264779 0.19678447 0.0073073027 0.39115986

model/Conv2D_2_bias f4 [10]
00000000: 7030 083e 1ab5 1d3d af44 713d 448e 6dbe
00000010: b84b 403e b389 fcbc 2569 f4bd 938d 01be
00000020: d7f6 5e3e 061c fcbc
0.13299727 0.03850279 0.058903392 -0.23198801 0.18778884 -0.030827379 -0.11934117 -0.12651663
0.2177385 -0.030775081

model/Conv2D_bias f4 [40]
00000000: 5e41 093e 13cf a23e 5c57 3c3e c5e2 dabe
00000010: b2f3 80bd a4c7 c6bd 9f3f 283e c387 623e
00000020: df9a 46be 9c47 4e3d 042f d53d 3bd3 04bc
00000030: 8f08 b8bd 759d e43d ee54 32be 23e7 fc3b
00000040: c24b 0ebe 3a2c e13e c5db 243d 0352 0abe
00000050: 82fc 88be f777 86be 4499 72bd 9e44 68be
00000060: bccf 803c 229f 1f3d ec69 c0be afbe cc3c
00000070: b3b0 303e 4447 6c3e 97df 9e3d 272b d23d
00000080: f0f7 933d 4f01 2b3d 9332 d2bd 15dd 66be
00000090: 17d1 c8bd 687e e83d a8a7 f0be 63b8 0a3f
0.13403842 0.3179861 0.183927 -0.42751136 -0.06296481 -0.09706047 0.1643052 0.22122101
-0.19395016 0.05036126 0.10409358 -0.008107002 -0.089860074 0.11162845 -0.1741521 0.0077179833
-0.13896087 0.43979055 0.04024865 -0.13507847 -0.26755148 -0.262634 -0.059228197 -0.22682425
0.015724055 0.03897012 -0.37580812 0.024993269 0.17254905 0.2307406 0.0775749 0.10262137
0.07225025 0.041749295 -0.102635525 -0.22545274 -0.09805506 0.11352235 -0.47002912 0.541876

model/MatMul_1_bias f4 [2]
00000000: fdaf 633f b57c 30bf
0.8894041 -0.6894029

model/MatMul_bias f4 [100]
00000000: bd9d c03e 331e 803d 6f7c cc3e 1f91 b03e
00000010: 3a65 923d f367 783e cb0f b13d c27f 0a3d
00000020: 9845 553d 0ba8 343c 5340 b93e 3e1c 3fbc
00000030: 1349 c33e 7350 963e 0d49 623d c02a ac3b
00000040: cdaf df3c cd59 a53e b53c 24bc c36a b13e
00000050: 56e4 c53e 1ffc eebc 0d6d 923d 14d4 9b3e
00000060: 4e65 e43e 41ab 173d fa96 ef3e 4780 62bd
00000070: b693 a23e f1b0 2dbd a5d1 5dbd 6aa0 983e
00000080: 463e 80bd 1b28 27bd c69e cb3e 652e 603d
00000090: 76f0 20bd 77e6 b83e cc72 9c3d 6bb7 f43d
000000a0: 8bc2 3e3e df88 a33d 97ed ec3c f002 fd3b
000000b0: dd3c 0fbc 8b07 bd3e fbf1 033e cfc6 e53e
000000c0: fab7 493d decc 843b 6f3e 0f3d 4010 ba3d
000000d0: 5f08 e93c 723f cfbb 0b6a b13e 5b26 6f3d
000000e0: 3040 c23e c15e c53e 70d8 bb3d c64f c53e
000000f0: 5596 c93e fc87 a3bc 3d46 a53e dc8e 3c3c
00000100: 9cb3 90bb 5644 d73e 4df6 833e 687a fa3d
00000110: a422 9a3e 3402 35bd 735a 893c 8994 0fbc
00000120: a047 213c a96e a43d 81b3 9b3e efc6 ab3e
00000130: 7397 f53e e8cf 9e3e 9982 99bc 2c34 3dbc
00000140: 58ed b3bd f46d 97bd bb34 bb3d 81a5 e0bc
00000150: 37e9 883d 369d b03e 2b10 873c 3b75 aa3e
00000160: b47b 003d 8929 c43e f447 ba3e 8ce4 a6bd
00000170: 3b12 f2bd 7e95 973e b208 af3e fd66 c53e
00000180: aded bf3e 5222 b53e e95c b23e 12c4 cf3e
0.37620345 0.0625576 0.39938685 0.3448572 0.07148214 0.24258403 0.086455904 0.033813246
0.052068323 0.011026393 0.36181888 -0.011664448 0.3814169 0.29358253 0.055245448 0.0052541196
0.027305508 0.32295075 -0.010024239 0.34651765 0.3865077 -0.029172955 0.07149706 0.3043524
0.4460854 0.037028555 0.46794873 -0.055298116 0.3175332 -0.042405073 -0.05415501 0.29809886
-0.06261878 -0.040809732 0.39769572 0.054731745 -0.03929182 0.3611333 0.07639083 0.11949047
0.186289 0.079850905 0.028921885 0.0077212974 -0.008742538 0.36919817 0.12885277 0.4487824
0.04924772 0.0040527424 0.03497165 0.09085131 0.028446374 -0.006324702 0.34651217 0.058386188
0.37939596 0.38548854 0.091721416 0.38537425 0.39372507 -0.019962303 0.3228015 0.01150867
-0.0044159424 0.42044324 0.2577385 0.122303784 0.30104554 -0.044191554 0.016766762 -0.008763441
0.009843737 0.08028919 0.30410388 0.33550212 0.4796711 0.31017995 -0.018739032 -0.011548083
-0.08785504 -0.07394019 0.09140917 -0.027422668 0.06685107 0.34494942 0.016487202 0.33292565
0.031367972 0.3831294 0.3638302 -0.081490606 -0.118198834 0.2960624 0.34186321 0.38555136
0.3748602 0.35377747 0.3483651 0.40579277

model/Variable/read f4 [1, 5, 5, 40]
00000000: f277 d1bc a389 eb3b 7964 093e 2193 293e
00000010: 73aa 303e a290 40be df39 243e f317 00be
00000020: 8dc3 5fbc a045 0abe 4877 bcbb 6f02 013e
00000030: a0dd 163e 93a8 2b3e 8eeb 913e ccfb 9e3d
00000040: c07b c2bd f08d 61bd 5899 483e 67ec 94bd
00000050: f724 47bd 34ce 83bc 2c3c 78be 2b89 033d
00000060: 7932 cc3c 3bb0 3d3c dad3 4e3d 62e4 7bbd
00000070: c7c8 dabd 0db3 083d e110 833d 0093 063e
00000080: ea28 993c acf9 56bd 21f5 e6bd 58d0 123e
00000090: c279 b3bb 6a58 47be a44f 52be cf2d 6c3d
000000a0: 8e8f 143e 236b 8a3e 8501 a93c dd86 10bd
000000b0: 6b90 443b 00ae dabd a9d3 3a3e a48f b6bd
000000c0: 83f2 b3bc 584b 17be 4347 8fbd 35f5 293e
000000d0: 1d1a 41be 65df 03be 1e5a 8b3d b85a 3bbb
000000e0: fd2d 6a3d c245 1d3e fef8 613d 765c 1abc
000000f0: 8b7d 3cbb 55fe 053d 5c8a 6cbe 9d54 98bd
00000100: 9918 f23d 82ec b53d 0c46 4f3c 5974 dc3d
00000110: 67aa bd3d c5aa bebc c9b5 8fbd d3a0 433e
00000120: 8377 153e 2926 4dbc c7e8 233d 66db f43c
00000130: d0af 0e3d 9672 84be 4e00 f43d 2230 13bd
00000140: a7aa 3fbc 118e 3c3e b578 b8bd e0ff ecbc
00000150: 1275 d73d a1ad 7cbd f182 063e 40ce 07be
00000160: 712e 4ebd 79fe 19bd bda7 92bd ea14 843d
00000170: f2a5 47bd d23d 793c bf45 2c3e 0a96 283e
00000180: 757f db3d 59c4 103e 7c18 593d 3a07 813d
00000190: 6232 33ba cc72 37bd 447a 91be 71e7 6f3d
000001a0: 4eda 8b3d 69ba 21bd f05f e83d ce65 e63d
000001b0: 7583 963d 5e39 45bd 076f 45bb e76e 5d3e
000001c0: b60b 463e e2e3 cbbd 134c 823d 5b57 59be
000001d0: 5a3b 16be 8098 35be 27c8 683d d879 213e
000001e0: 2c7d 1fbe 599d 213e 7343 933c 837e 64bd
000001f0: 18e2 243d e6cd 9abb a656 f73d d765 84bd
00000200: f5cb 543e 5e2f b3bd 64c1 fdbd fc0d 09bd
00000210: 5b91 2b3d f774 4d3d 1043 eb3c 0a33 123e
00000220: b11e 8fbd 863c c0bb 0998 e0bd 0e70 f6bc
00000230: bd66 8fbd 0e2d 75bd b3f4 8ebb c50b a9bc
00000240: 634d 96bd 12fe bb3c bd01 c63c 11b1 7e3d
00000250: 1519 c3bc e707 73bd f258 f4bb d4e0 513e
00000260: d49b 023d fbaf 3cbe 45b5 37bd 38a0 b03d
00000270: 12e1 c73d 4291 f8bc 4287 103e 2611 383e
00000280: 9801 133d 2bba c23c c913 7c3c 0334 143d
00000290: e0fe 453d 2a70 d7bc 5c21 ef3d 0f2a 88bc
000002a0: db32 87bd 908d 7ebd 4697 333d fe6c a5bc
000002b0: 0e84 d33d b6e7 05be 047e 353d 94d9 f73d
000002c0: f44e 80bd a514 85bc f7e1 01bd 2678 e53d
000002d0: 580d ba3c 7cf2 9bbd 7855 25bd 6c5e a7bc
000002e0: 9d31 c5bd 570f 093d 540b 2fbe 6787 b53b
000002f0: 1e20 4c3d a00a ecbb 8a28 0c3d 1f4e 3a3e
00000300: 763f 383c 9969 f1bc e9e4 883d 9aa6 0b3c
00000310: ff6e 943d 858f b2bc 75d9 8f3d 9745 9dbd
00000320: 0b1d 0f3d 5cd8 79bd de1f 4e3e 9a9f 6b3d
00000330: 70e6 613e 797f 33bd 3450 9f3d f92d a4bd
00000340: 92ba 493d 09b0 c0bd d747 85bd 302c 6a3d
00000350: 7ed3 883e 876f 4f3d bf8b a23e df91 c23d
00000360: e3e8 35be 4a61 acbd 694a a8bd 88db adbd
00000370: 64c7 8abd 87f1 e53a 90bf 843e 5cde 243e
00000380: 63b2 65be 8cd5 50bd 05ab 083c 797a 0e3e
00000390: e28f 1d3b 03c2 ccbd 8bc4 ca3c b35e 0cbe
000003a0: cd79 133e 2020 ac3d 8a2f 56be 4b89 d13d
000003b0: 1e06 2f3e a9dc 5a3d 7923 3ebe 0cd2 e73c
000003c0: 4591 583e edfd ab3c b021 ddbd cfd6 31be
000003d0: 58d6 fcbd 5acc 41bd dc08 f43d 25bf 1fbe
000003e0: e45f 02be 94c5 23be 025e c5bd d9c5 ffbd
000003f0: f2cb 16be 9093 f5bd 75fa 9c3e 1e56 113c
-0.02556989 0.0071880384 0.13417234 0.16560031 0.17252521 -0.18805173 0.16037701 -0.12509136
-0.013657463 -0.13503122 -0.005751524 0.12598585 0.1473298 0.16763525 0.28500026 0.0776287
-0.0949626 -0.055067003 0.19589746 -0.07271653 -0.048619237 -0.016089536 -0.24241704 0.032113235
0.024926411 0.011577661 0.050495006 -0.0614971 -0.106828265 0.03337388 0.06399704 0.13142014
0.018696267 -0.0524842 -0.112772234 0.1433729 -0.005477161 -0.19467321 -0.20538193 0.057660874
0.14507887 0.27034864 0.020630607 -0.035284866 0.0029993306 -0.10677719 0.18244804 -0.08914116
-0.021966225 -0.14774835 -0.06996014 0.16597445 -0.18857618 -0.12878187 0.06804298 -0.0028588008
0.057172764 0.15358642 0.055169098 -0.0094214585 -0.0028761353 0.032713253 -0.23099655 -0.07438014
0.11821098 0.08883001 0.012650978 0.10764379 0.09261017 -0.023274789 -0.07017095 0.19104318
0.14596371 -0.012521305 0.040016916 0.029889774 0.034835637 -0.25868672 0.119141206 -0.035934575
-0.0116984015 0.18413569 -0.09007398 -0.028930604 0.10520376 -0.061689023 0.13135888 -0.13262272
-0.05033726 -0.0375962 -0.071609 0.064493015 -0.048742242 0.015212493 0.16823481 0.16463485
0.1071767 0.141374 0.053001866 0.063002065 -0.0006835816 -0.044787213 -0.28413594 0.05857033
0.06828748 -0.039484415 0.113464236 0.112498865 0.07349292 -0.048150413 -0.0030125992 0.21624337
0.19340405 -0.099555746 0.06362166 -0.2122473 -0.14671078 -0.17733955 0.056831505 0.15769136
-0.15575093 0.1578268 0.017976498 -0.055784713 0.040254682 -0.004724252 0.12077074 -0.06464737
0.20780928 -0.08749269 -0.12390402 -0.033460602 0.04188667 0.050160374 0.028718501 0.14277282
-0.06988276 -0.00586659 -0.109664984 -0.030082729 -0.07002018 -0.05985742 -0.0043626665 -0.020635495
-0.07338979 0.022948299 0.02417075 0.062180582 -0.023815671 -0.059333708 -0.007456892 0.20495921
0.03188689 -0.18426506 -0.044850606 0.08624309 0.09759726 -0.030342702 0.14114097 0.17975292
0.03589019 0.023770412 0.0153855765 0.036182415 0.04833877 -0.026298601 0.11676285 -0.016621618
-0.06601497 -0.062146723 0.043845437 -0.020193573 0.10327922 -0.13076672 0.04430963 0.121020466
-0.06265059 -0.016245196 -0.031709637 0.11204557 0.02271144 -0.076146096 -0.040364712 -0.020430766
-0.096286036 0.033461895 -0.17094165 0.005539823 0.049835317 -0.007203415 0.03421835 0.18193863
0.011245599 -0.029469298 0.06684286 0.008523608 0.07247733 -0.021796951 0.070238985 -0.07679289
0.034939807 -0.060997352 0.20129344 0.057525255 0.22060561 -0.04382274 0.077789694 -0.08016581
0.049250193 -0.09408576 -0.06507843 0.057171047 0.26723856 0.05064347 0.31747243 0.09500479
-0.1776462 -0.08416994 -0.082173176 -0.08489138 -0.06776312 0.0017543294 0.259274 0.16100448
-0.2243133 -0.050984904 0.0083415555 0.13913907 0.002404206 -0.09997942 0.024751922 -0.13708
0.14401932 0.08404565 -0.20916572 0.10231265 0.17092177 0.053433094 -0.18568219 0.0282984
0.21149166 0.020995105 -0.10797441 -0.17367099 -0.1234557 -0.047314025 0.11915752 -0.1560026
-0.12731892 -0.15993339 -0.09637071 -0.12488908 -0.14726236 -0.11991036 0.30659834 0.00887063

model/Variable_2/read f4 [20, 5, 5, 40]
00000000: 3d5d 11be f1ff 3b3a 6f82 eebd 4e3d efbb
00000010: 4c52 25be 36a6 313e 5017 1f3d d4b6 593d
00000020: b35c 52bc b12a 143e dde5 32bc 62e8 1dbc
00000030: ace0 80bd c092 20be 26f8 bcbd 265a aebd
00000040: 0124 87bd c5d9 043d 8331 41bd a310 1abe
00000050: 0d40 9fbd 49aa 523e ff70 0b3e dd22 53be
00000060: 9b0b 013f eec7 28bd cf00 0bbe dbbd cb3d
00000070: 0595 0a3d e9ba d43d 2408 7b3e 7fbb 303e
00000080: 7794 583e b365 1e3c cddf df3d dc60 36be
00000090: e049 9ebc 9ca0 683d c88a 00be d8e9 0cbe
000000a0: 578a 7d3c 8d32 b7bc 78ca 2abd da5b bebc
000000b0: 4a09 52bd c5f6 48bc 338d d8bc 74ff 92bd
000000c0: 1be8 e93d 7cc4 413e ee4a 11be feb5 49be
000000d0: dd4c 9f3a c50d 893d 71de a13b 00af 8f3d
000000e0: a16d 323e eeed 923d 93e2 c1bd 9c20 883d
000000f0: 438a eabd 0939 c9bd b28d 5b3e dbf1 2dbc
00000100: f05f 123e 9113 87be 927e 8fbd 7e96 2f3c
00000110: 1674 65bd 1ba3 9c3d 397a 323c 02f4 cb3d
00000120: 9352 be3d 347c ccbc ebca 523c f03b e83b
00000130: 1473 88bd f3d2 ba3d 58e0 8d3e 154a 3a3e
00000140: 19a2 6fbd 27e6 923d 949c 2c3e 21f9 323c
00000150: 4fa3 4f3d 1d29 15bd 26a2 98bc 4214 0b3d
00000160: f459 b83c 71cb 31bd 7d2a 133d de45 20bd
00000170: d900 363d 1f94 cf3b f394 37be 65a8 93bd
00000180: 3adf dabd 6516 27bd 6760 87bd 2569 983d
00000190: 2ce2 d73b f36e 333d c146 c03d cfa0 d8bd
000001a0: 59ad 6e3e 2591 a0bc 058e e6bd c054 63be
000001b0: a7aa 993d 31a0 913e aca2 b53d be03 f7bb
000001c0: 3d99 cb3d 2424 f03c a2f5 c2bd 9c5e 1abd
000001d0: b192 eb3c 43f0 b13d db07 7a3d 8621 9abc
000001e0: 1be9 393e 0fc5 e73d ea4a 67be a56e b2bc
000001f0: d73f a33c 4a81 bb3d 5b93 fb3d 092c 57bd
00000200: aeaf 02be 2929 9e3d 7340 213d a752 11be
00000210: e554 623d cc12 b9bd 04ae 4abe bb30 fa3d
00000220: 2bcc 563d dbcf ed3d ca61 023e 9c66 3fbd
00000230: 5d34 103e 761b f83c 3300 ae3d 2370 5c3d
00000240: 8acd f53d 6f39 f6bd 4813 7bbd ebc4 40bd
00000250: dde1 243e 1a15 84bd e7c3 89bd 638f bd3d
00000260: 2dfb 18bc f781 b7bd 5851 8cbc c689 3dbd
00000270: eae9 bbbd 6b25 cbbd c4e4 a9bd ab64 4e3c
00000280: ae56 ddbd cffe c9bd 03ba 18be de85 56bd
00000290: e1e4 2e3e ff92 babd d585 b43d 3d44 8ebd
000002a0: 0078 77bd 3f63 dd3c 109a fdbc bb76 9cbd
000002b0: 785c e8bc 5ac9 3d3d deb9 3dbd d062 e5bc
000002c0: 5fe2 1c3d fe9a 5bbe 6f99 f33c 31f7 4fbd
000002d0: 4088 68be 8aa2 3abd ce6c 403e dace 793e
000002e0: 332d e43d f891 a63d 11d6 a83d 9f06 01be
000002f0: 0213 96bb 77a4 193c 240c db3d 5127 b8bd
00000300: 5cbd cb3c fb4b 58bd 4b4f 16be 022a 01bc
00000310: d8cb 90bd a0e2 183e 5306 84bd 68b0 f8bb
00000320: 028d 2ebe 037e 50bc 13ce 20be 3d3b 4abe
00000330: a236 fdbd 93fe 7cbd b531 c23c ad53 bdbe
00000340: 15e0 8e3d 1c84 17be ccc8 d2be 248e 3cbd
00000350: 3047 843a 56a5 88bd cbf5 053e 280b d7bd
00000360: 8887 c1bd ab46 51be dc84 93bd d7af 7dbe
00000370: 4df0 e3be 15a7 7ebe 45e0 3c3e 734c b4be
00000380: 7038 c93d 14b2 81bd a630 82bd ed17 9f3d
00000390: 2f57 843d 60b7 3fbd 6178 00be f26f 89bd
000003a0: f4a7 bdbd a6fe 963c 0362 cfbd b466 6dbe
000003b0: 0f08 ec3d 61b0 5cbe a02e 53be d135 2a3d
000003c0: 2ae4 083d 031b 113d b34c 98bd 4881 6d3d
000003d0: 2505 1f3b 649d 3ebe b451 8fbd e0d1 c3be
000003e0: af11 f83d 77b6 90be 35b4 69be cca5 2ebd
000003f0: ba4d dd3c 1f20 193e 6d83 b33d 3387 453c
-0.14195724 0.0007171622 -0.11645972 -0.0073010093 -0.16144675 0.1734856 0.038840592 0.053152874
-0.012839484 0.1446941 -0.0109190615 -0.009637924 -0.06292853 -0.1568098 -0.09227018 -0.08513288
-0.06598664 0.032434244 -0.04716636 -0.15045409 -0.077758886 0.20572771 0.13617323 -0.20618768
0.50408334 -0.041206293 -0.13574527 0.099483214 0.033833522 0.10387213 0.24514824 0.17259024
0.21150385 0.009667802 0.109313585 -0.17810386 -0.019322336 0.056793794 -0.12552941 -0.1376108
0.015474877 -0.022362972 -0.041696995 -0.023237158 -0.05127839 -0.012265866 -0.026434517 -0.0717763
0.11421224 0.18922609 -0.1418874 -0.19698331 0.0012153644 0.066920795 0.004939847 0.070158005
0.17424633 0.07174288 -0.09467044 0.06646845 -0.114521526 -0.09825332 0.21440771 -0.010616745
0.1429441 -0.26382115 -0.07006563 0.0107170325 -0.05601891 0.076482974 0.010893398 0.0995865
0.092930935 -0.024961568 0.012865762 0.007087223 -0.066625744 0.091222666 0.27710223 0.18192323
-0.058504198 0.07172804 0.16856605 0.010923655 0.050692853 -0.03641616 -0.018632006 0.033954866
0.02250383 -0.043406907 0.03592919 -0.03912913 0.044434402 0.006334796 -0.17927913 -0.07209853
-0.10687108 -0.04079284 -0.06610184 0.0744193 0.006588241 0.04380698 0.09388495 -0.10577547
0.23308314 -0.01960046 -0.11257557 -0.22200298 0.075032525 0.2844253 0.08868918 -0.007538288
0.09941337 0.029314108 -0.09519507 -0.037687883 0.028756471 0.086884044 0.061042648 -0.018814813
0.18155329 0.11316883 -0.22587171 -0.021781275 0.019927902 0.09155519 0.12283965 -0.05253223
-0.12762329 0.077226944 0.039368104 -0.14191686 0.055256743 -0.09036788 -0.19792944 0.12216326
0.052440803 0.11611911 0.12732616 -0.046728715 0.14082475 0.030286532 0.08496132 0.05381788
0.12002094 -0.12022673 -0.061297685 -0.047062796 0.16101785 -0.06449337 -0.067268185 0.092558645
-0.009337229 -0.08960336 -0.017128631 -0.04627397 -0.09175475 -0.09919246 -0.08295587 0.012597243
-0.108075485 -0.09863054 -0.14914708 -0.05237376 0.17079498 -0.091100685 0.08814589 -0.06946609
-0.060417175 0.027024863 -0.030957252 -0.076398335 -0.028364405 0.046334602 -0.046319835 -0.028001219
0.03830182 -0.21445844 0.029736249 -0.05077285 -0.22708225 -0.045565166 0.18791506 0.24395314
0.111414336 0.0813331 0.08243955 -0.12600182 -0.0045799026 0.00937759 0.10695675 -0.08991874
0.024870567 -0.052806836 -0.14678685 -0.007883551 -0.0707013 0.149302 -0.06446519 -0.0075893886
-0.17045978 -0.012725356 -0.15703611 -0.1974916 -0.12363936 -0.06176622 0.023705343 -0.36977902
0.06976334 -0.1479649 -0.4116882 -0.046033993 0.0010092016 -0.0667216 0.13082044 -0.10500175
-0.09449679 -0.20437114 -0.07203075 -0.24774109 -0.44519272 -0.24868424 0.18444927 -0.35214576
0.09825218 -0.06332794 -0.06356935 0.07768235 0.064619415 -0.04680574 -0.12545921 -0.06710805
-0.0926055 0.018431973 -0.10126116 -0.2318371 0.115249746 -0.21551658 -0.20623255 0.04155523
0.03342072 0.03542615 -0.07436504 0.05798462 0.002426454 -0.18614727 -0.069980055 -0.3824606
0.12112748 -0.2826421 -0.2282265 -0.042638585 0.027014602 0.1495366 0.08765302 0.01205616

model/Variable_4/read f4 [10, 5, 5, 20]
00000000: 5f4a 953e 3d54 1d3e c5fb 1cbb cda3 6fbe
00000010: a875 5abe c71d bdbe 49e2 1ebd cd17 353d
00000020: db5c 8abe 2b83 903d 9940 bfbd a795 743e
00000030: d9fe 2cbe fd5a 043c fa9c 9e3d cc75 f0bd
00000040: 6685 26bd 9b33 9ebd b48d d0bc dd12 18bd
00000050: ac87 bebd 55a3 afbd b32c 5c3e 2aea a8bd
00000060: d756 04bd 1afb e3bd cb28 3abd fb84 ea3a
00000070: 0de0 f3bd b75f 833d 9bf0 c7be b227 86bb
00000080: 7b59 193e 13db 59bc d1ae ddbc 25e0 a63a
00000090: b66b 03bd b039 8fbd 107d b1be 52b8 80bd
000000a0: 2da1 98bc 1618 8f3e d08f 0a3e e854 b73d
000000b0: dffe 343b 3d2c f23d 844a 3ebe 1c0c 95bb
000000c0: 6028 c8bd dd66 b0bd d9c7 d2bd aa8e 3abe
000000d0: 9827 273e 2115 0e3e 1e97 d2bd 6c5d 873d
000000e0: 6b43 55bd 6531 fdbd fb4d 143e f90f f2bd
000000f0: 9d1d d5bc a22e 03be 6bb6 003e f63d c53b
00000100: db01 18be fa2e 983d c375 34bd 317b 893c
00000110: 27ab b6bd 951d dfbb 7595 dbbd f642 283c
00000120: e9ef 383e 3f71 b53d 005c babd cbe6 a9bd
00000130: 0084 953c 0b42 76bd 1ef4 253c 8a4f b0bd
00000140: bed9 4f3a 4d01 283d 36ec c33d 69fc 293c
00000150: 08f2 2abe 7c08 83bd 1d9f 4abc a8bc 12be
00000160: 339e bcbd 435a 85bd 11fb 03be c055 2a3d
00000170: 0065 a33d 9cf4 04bd 29a8 443d 78ae b2bc
00000180: d91f a3bd 8494 4abe 9483 173e c8ae 283e
00000190: 42a2 333e 7879 d0bd c194 79be 67e0 20be
000001a0: dbfb 6cbe 6b74 88be 6556 a8bd d1cf 32bd
000001b0: 4288 18be d821 86bb fd93 dbbd f405 5ebd
000001c0: c736 3dbe 7024 37be ec07 a03d 0977 11be
000001d0: af4b 52bc c17f 8ebd 0569 d9bd be53 0cbd
000001e0: 56e5 563e 4036 9f3d af3a df3d 7689 5abd
000001f0: 1ede dfbd eead 1bbc cbae 1c3d b744 03bd
00000200: cb79 42bd 185d 833d 3903 68bd fbab 023e
00000210: 2f02 043d f4e0 8fb8 36d6 433d 30a4 27bc
00000220: 64b7 92bc 5fb0 1cbe adab f3bd d46d cebd
00000230: efd1 4a3e 5ddb 5a3d 4460 0a3e 9262 463d
00000240: 2fa3 9ebc bec5 063e 1693 c63d da4b 663d
00000250: 6617 a2bd d7d2 183d 6ea4 55bd e513 91bd
00000260: fcaf cc3d e691 03bd 1d2d e3bd 6c16 3abd
00000270: 7376 a2bd 3d17 8bbd 342c ab3d 6e8c 1fbd
00000280: 6400 8c3d 8a25 45bd 279d 503e 4df8 733a
00000290: 3fe6 2bbe 434a 133e b64b 8d3d 8f2f c7bb
000002a0: cf37 2d3d 02fb 99bc b4f7 87bd 124b 9c3d
000002b0: 554a f33d b3e5 213e 29f5 1bbd 403c 703d
000002c0: e190 643d 449f 773d 2f74 f23d c6f5 dd3d
000002d0: 1f03 43be fb63 8b3d cab8 b53d f9a3 85bd
000002e0: 5f1c 8f3c 2a2b 15be 0926 263e 799d 6dbd
000002f0: 8631 b93c f2dd 8d3d 750a 1a3d 12b1 d7bd
00000300: 5d3a 08bd 804d 4b3c d5a2 953c a22f e33d
00000310: 0b39 353d f9ad 933d dd77 bb3d b549 763c
00000320: bf74 1a3e 5f25 a0bd a047 82bd 0935 0cbe
00000330: e1d8 62be 7feb a8bc 81e4 53bd 429d 13be
00000340: f1f3 89be a02a f13d 8f13 7bbd 787a 79be
00000350: 19c0 62be 5ef3 8abe aaea 0a3e 52b1 0bbe
00000360: 7e65 583c bdbc bcbb c47d 03be bab0 a03d
00000370: 9d5d ca3d 3334 77bc bda7 ab3d 7bb6 2a3b
00000380: 716f 98bd 1b60 a6bd 98e0 00be e3e1 5c3c
00000390: 9c78 c43d 70da 4a3d 4f7e 8e3c 5c83 aebc
000003a0: ab49 7abe 87d1 b53c dbc9 c13d cc06 8ebe
000003b0: b258 a43c 17ec a13d 0099 bfbd 44b8 013e
000003c0: a3f2 ffbd c4a3 12bd 0492 c2bc fb5f e73d
000003d0: 20c2 5cbd ffa2 923c 6f36 f53c 264a 79bd
000003e0: e3ec f43d 2ba3 ad3d 6a60 17be 89ee 2abc
000003f0: fd26 b13a 9efd b9bd 4d1f 06bd 7b99 cd3d
0.29158303 0.15364166 -0.0023953777 -0.23402329 -0.21333945 -0.3693678 -0.03879002 0.04421215
-0.27023968 0.07056268 -0.09338493 0.23885213 -0.16894092 0.008078334 0.07744785 -0.11741218
-0.040654562 -0.07724687 -0.025458194 -0.037127364 -0.09303221 -0.08576075 0.21501426 -0.08247788
-0.03230938 -0.11131878 -0.04544906 0.0017892414 -0.11907969 0.064147405 -0.39050755 -0.0040940875
0.1497554 -0.01329686 -0.027060898 0.0012731595 -0.032085143 -0.06993425 -0.34665728 -0.06285156
-0.018631542 0.27948064 0.13531423 0.089517415 0.0027617735 0.11824844 -0.18583113 -0.0045485627
-0.09773326 -0.086133696 -0.10292024 -0.18218485 0.16323698 0.13875248 -0.102827296 0.06609616
-0.052066248 -0.12362937 0.14482872 -0.11819453 -0.026015097 -0.12810758 0.12569587 0.006019349
-0.14844458 0.07430835 -0.04405762 0.016782375 -0.089193635 -0.0068089464 -0.10721866 0.010269871
0.18060268 0.088594906 -0.09099579 -0.082959734 0.018251419 -0.060121577 0.010129003 -0.08608921
0.00079288695 0.041016866 0.09566538 0.010375121 -0.1669389 -0.06398103 -0.012367037 -0.14329779
-0.092098616 -0.06511357 -0.12888743 0.041585684 0.079782486 -0.03245984 0.048011933 -0.021811709
-0.07965059 -0.19783217 0.14796287 0.16472924 0.17542365 -0.10179418 -0.24373151 -0.15710603
-0.2314295 -0.2665132 -0.082196034 -0.04365522 -0.14895728 -0.00409339 -0.10721586 -0.054204896
-0.18477927 -0.17884994 0.07814011 -0.14205565 -0.012835427 -0.06957961 -0.10615734 -0.03425955
0.20985922 0.07774019 0.10899865 -0.05335375 -0.10931037 -0.009501917 0.038252633 -0.032047953
-0.047479432 0.064142406 -0.0566437 0.12760918 0.032228645 -6.860672e-05 0.04781171 -0.010232016
-0.017909713 -0.15301655 -0.11897979 -0.10079542 0.19806646 0.053431857 0.13513285 0.048433848
-0.019364921 0.1316137 0.09696023 0.05622468 -0.07914619 0.037310448 -0.052158765 -0.07083873
0.09994504 -0.03212156 -0.11092589 -0.04543154 -0.07932749 -0.06791542 0.083580405 -0.038952284
0.06836012 -0.048131503 0.20372449 0.0009306714 -0.1678705 0.14383797 0.06899206 -0.0060786675
0.04228955 -0.018796448 -0.066390425 0.07631506 0.11879412 0.1581028 -0.0380756 0.05865121
0.05580223 0.060454622 0.118385665 0.10837893 -0.1904416 0.06806179 0.08873136 -0.06525416
0.017469583 -0.14567247 0.16225447 -0.058011506 0.022606622 0.06927098 0.03760763 -0.1053182
-0.033258785 0.012408614 0.01826612 0.110930696 0.044243854 0.07210917 0.091537215 0.015032222
0.15083598 -0.07819628 -0.06361318 -0.13692106 -0.22153045 -0.020620106 -0.05173159 -0.14415458
-0.26943925 0.11775708 -0.06129795 -0.24363124 -0.22143592 -0.271388 0.1356608 -0.13641861
0.013207791 -0.005759804 -0.12840945 0.07846208 0.098811366 -0.015088129 0.08381603 0.0026048708
-0.07443131 -0.081237994 -0.12585676 0.01348159 0.09593317 0.049524724 0.017394213 -0.021302871
-0.24442165 0.022194637 0.09462329 -0.2773956 0.020061824 0.07906359 -0.09355354 0.12667948
-0.12497451 -0.03580071 -0.023751266 0.11297604 -0.05389607 0.017899988 0.029933183 -0.06086173
0.11959245 0.084783874 -0.14782873 -0.010432848 0.0013515648 -0.09081577 -0.032744695 0.1003904

model/Variable_6/read/transpose f4 [100, 250]
00000000: 4a3d 223d 183b 473e 64d5 443b 2061 63ba
00000010: aa36 aebc e82d 86be 9902 b33c 15b5 9cbd
00000020: 3304 253d f279 0fbe 3201 38bd 84d3 e1bc
00000030: ca4b 4b3d 8b91 cfbd d911 943d be21 8dbd
00000040: 85b1 a6bd 781e 2bbe 45c7 60bc 8cf3 9bbd
00000050: 0dee aebd 85d1 adbd 78e7 823a 2e1c 603d
00000060: 65c2 0f3e 2f29 9e3d d617 3e3d 3c87 89be
00000070: 60b6 c8bc 6340 7bbd e8bc ef3d 2968 f93d
00000080: b9b6 d43d f987 a33d ee9c b6bd 2616 eebd
00000090: 39de 15be d5f2 92be cb17 823d 5b70 bcbe
000000a0: f1d1 f23d fc15 a4bc 58a5 e2bd bda6 1bbe
000000b0: 6410 0c3d 7543 bb3b a90b 1c3e 94db bb3d
000000c0: adb4 b93d 05c7 e03d 1655 993d 7320 2a3d
000000d0: a2af 04bc 206c df3c ef09 19be 950f 10be
000000e0: d1e3 48bd 1eb5 b73b 3e20 bcbd 1cff 4ebe
000000f0: 6904 083b 817b 1fbb 505d b33c 8b9b fbbb
00000100: fd88 03bd 0912 ca3b 8ac0 b23d d77b f5bd
00000110: 61d8 b4bd 0a44 c3bd 1c74 abbd edae a4bd
00000120: 77c3 b73d 7939 c93d 9458 393b 33df 10ba
00000130: a1cd 393c 37ba 00be 2e58 1cbd ec28 0bbd
00000140: bd98 c7bd d28e 0abe d58a 91bd e0a5 b53d
00000150: acf7 b63d 6540 2abd 02a0 a0bc a334 9bbe
00000160: cfa8 9b3b 66dd 8bbe a94d d33c 9dfe 19be
00000170: bc32 27be eed2 1cbe 8896 883e 1cd7 bf3c
00000180: d6f6 f93d c987 133c 0c54 783d d209 75bc
00000190: b46e 17bd 743c 1c3e 3357 c03d e6f7 95bd
000001a0: fe1a 5fbc 11b0 3dbe 78eb cd3d d2d7 dabd
000001b0: 74db 2b3d 6d3c 3b3c 4bd5 0c3d 7048 8b3d
000001c0: 9a1b 3b3d 914e 0dba 8b27 603d facd 8ebd
000001d0: a5d1 b3bc 825a f1bd 6a10 11bd ed24 6a3d
000001e0: e103 923d e028 b2bd 0bfc 593d 4eeb 18be
000001f0: 16b8 0e3d 7746 f33d 4e13 2cbc bca3 c5bd
00000200: 14d4 213c b8b9 413d b1fb 153e eed7 12bd
00000210: 517f afbd 905a cd3c 4d32 813d 96d0 5ebd
00000220: 5aab febd b281 19be 07ac 713d 0dc2 f73c
00000230: d68a 173d 951e d63c 9a94 6ebd 8cf7 083d
00000240: cc3a d33c e7c0 25bd 08ca 1dbd 66c1 01be
00000250: dd3d 3d3c 0b79 6e3d e731 973d 1bc1 40be
00000260: f469 0c3e 6ebb 963b b609 a53b cd06 0bbe
00000270: b82e 69be 35a7 08be 7e06 08be 60f6 16be
00000280: c6f8 a43d a8c3 0e3e f1ee 0bbe df06 42bd
00000290: a773 87bd f73d 77bc 3081 43bd 1fb3 e23d
000002a0: ecd2 293d b330 babd f031 2c3c 6574 93be
000002b0: 5f81 6f3b 9919 8e3d b3c1 9b3c 7373 333e
000002c0: ca67 bcbd 560f 85be 2cc9 5cbd 965a 2abe
000002d0: 74d8 a13b 4141 cabd fd91 8abe 2e05 2f3d
000002e0: c26d 603e e44f 0abe 6b4a 81be 805d 35be
000002f0: 4c2d c8bc f87a f13c 0406 7fbd fe92 e43c
00000300: 6a9b ee3d 047b 54be 386b 943d 26d7 d2bd
00000310: b4ae 36bd 78da e23d adf5 ecbd 68c5 ac3d
00000320: 0c65 373c 40d8 86bd f150 043e eacb 47bd
00000330: 920f d2ba d1d2 053d e8b4 0ebe 93c0 6f3d
00000340: 0b9f f93c 9131 d23c 1e6f 53bd 0bc7 e63c
00000350: 0db2 943d 790b 003d d7da 0d3d 3d57 c2be
00000360: 6d73 84bd 0876 cd3c e0a3 23bb 859d 0bbd
00000370: 0517 f4bd 0c83 c7bd 3995 debe 0bd5 aabd
00000380: 91c4 963c d499 0e3d 0fd3 803d 363e 36ba
00000390: 7f1b e73c 3e25 a9bb 38ca 5cbd 795e 043e
000003a0: 4913 3abe 6bc2 963c 857e 2a3d 24c4 9cbe
000003b0: bd80 533d 2c0d 7bbe 4309 11bc cf87 d0bd
000003c0: 51fd 5a3c 262b 9abe e964 3d3d df9d 81be
000003d0: 3b2a 61bd e1a7 33bd 1203 113e 8811 95bd
000003e0: c094 c63c 225c 6fbd 1384 0dbe 30da e43d
000003f0: df08 ce3d 3a07 213e 1511 d6bd 9a2f 133e
0.03960923 0.19456136 0.0030034417 -0.00086738355 -0.0212663 -0.262069 0.021851825 -0.07651726
0.040287208 -0.14011362 -0.044923015 -0.027566679 0.049632825 -0.10135182 0.07229967 -0.068912014
-0.08139328 -0.16710842 -0.013719385 -0.07614812 -0.08541498 -0.08487228 0.0009987196 0.054714374
0.14039 0.07722699 0.04640945 -0.26860988 -0.024501026 -0.0613407 0.11705953 0.1217807
0.10386414 0.07984919 -0.08916651 -0.11625318 -0.14635552 -0.2870089 0.063521944 -0.3680447
0.118564494 -0.020030014 -0.11066693 -0.15200324 0.03419532 0.0057148286 0.15238823 0.091727406
0.09067664 0.1097546 0.07486932 0.041534852 -0.008098515 0.027273238 -0.14945196 -0.14068444
-0.049045388 0.0056063076 -0.09185837 -0.20214504 0.0020754582 -0.0024335089 0.02189508 -0.0076784543
-0.032113064 0.0061667007 0.0872813 -0.11986511 -0.088303335 -0.09534462 -0.083717555 -0.08041177
0.08972829 0.09825415 0.0028281556 -0.00055264233 0.01134053 -0.12571035 -0.038170032 -0.033974573
-0.097459294 -0.13531044 -0.07106558 0.08869529 0.089339584 -0.041565318 -0.019607548 -0.30313596
0.004750348 -0.2731735 0.025793867 -0.15038534 -0.16327947 -0.15314838 0.26677346 0.023418002
0.12205283 0.009004542 0.06062703 -0.014955955 -0.03697081 0.15257436 0.09391632 -0.073226735
-0.013617275 -0.18524195 0.10054678 -0.10685696 0.041957334 0.011427981 0.0343831 0.06800926
0.04568062 -0.00053904305 0.05472521 -0.06972881 -0.021950552 -0.11784841 -0.035416044 0.05716412
0.07129646 -0.086992025 0.053218883 -0.14933512 0.034843527 0.118786745 -0.0105026495 -0.096503705
0.0098772235 0.047296256 0.14646794 -0.035850458 -0.085692056 0.025067598 0.06308422 -0.05439814
-0.124350265 -0.14990881 0.05900195 0.030243898 0.03699764 0.02613763 -0.058247186 0.033439204
0.025784872 -0.04046717 -0.03852275 -0.12671432 0.011550394 0.058220904 0.07382565 -0.18823664
0.13712293 0.00459998 0.005036558 -0.13576813 -0.22771728 -0.13345034 -0.13283727 -0.14742422
0.08055262 0.13941824 -0.13665368 -0.047369834 -0.06613856 -0.015090457 -0.047730625 0.11069321
0.041460916 -0.0909132 0.010509953 -0.2879974 0.0036545617 0.06938476 0.019013261 0.17524509
-0.09199484 -0.25988263 -0.05390279 -0.16636118 0.0049391333 -0.098757274 -0.27064505 0.04272955
0.2191687 -0.13507038 -0.2525209 -0.17711449 -0.024435662 0.029477581 -0.062261596 0.027902123
0.11650737 -0.20750052 0.07247013 -0.102949426 -0.044600204 0.11076826 -0.115702964 0.0843609
0.011193525 -0.06584215 0.12921502 -0.048778452 -0.0016026369 0.032671753 -0.13936198 0.058533262
0.030471345 0.0256584 -0.05161964 0.028171083 0.07260523 0.03126094 0.03463253 -0.37957183
-0.06467328 0.025080696 -0.0024969503 -0.03408577 -0.11918453 -0.09741792 -0.43473223 -0.08341416
0.018404277 0.03481467 0.06290256 -0.0006952019 0.028211353 -0.0051619103 -0.05390379 0.12926663
-0.18171419 0.018403253 0.041624565 -0.30618393 0.051636446 -0.24516743 -0.008852306 -0.101821534
0.013366059 -0.30111045 0.046238814 -0.2531576 -0.054971915 -0.043861274 0.14161327 -0.072787344
0.024240851 -0.058437474 -0.13819914 0.111744285 0.10060286 0.15725413 -0.10452477 0.14373627

model/Variable_8/read/transpose f4 [2, 100]
00000000: df2b 053c f3b9 b8bd 4a09 703d 98de 0e3e
00000010: 6e62 f6bd 6721 c43d 4ea4 be3c 05ff 0ebe
00000020: 29c7 40be 5b98 dabd 7429 8e3c 4732 2dbe
00000030: 2416 ff3d c2a7 553d 02bf 3dbe b8c0 18be
00000040: da1c 1ebe a0f3 903d 71ca f5bd 6849 7cbc
00000050: df55 563c ed99 babd 2471 14be 54e9 373e
00000060: e46d 5b3d 4142 e4bd 1b3c f0bc d95d 37be
00000070: d2ba d13d abfc febd 1d9f d3bd 9ab9 833d
00000080: cbaf 37be 6153 c2bd 3cfb a03d 85e1 313e
00000090: caa0 b2bd 29ea a83c 4c03 24be d2a9 26be
000000a0: 0141 9a3e a69b 69be 1037 fdbd 0a99 aabd
000000b0: 411b 16be 42e7 babb 4c37 3abe 775c b3bc
000000c0: 1602 dcbd 1bee adbd 683b df3b c5b9 e5bd
000000d0: 2f75 08be 0141 dbbd a739 c63d 4c79 943d
000000e0: 0212 953c 8e1b 0e3d fd19 82be 6b08 6e3d
000000f0: 023d 983d 7b41 9ebd 6b90 f03d f4e1 7ebd
00000100: cd04 00be 2f8d a43c e075 803d bfd1 93bd
00000110: 48bb 053e 3e11 ebbd 1b0b f9bd e041 2ebe
00000120: e85b dabd fbc1 f33c 1690 353d a495 ee3c
00000130: 4b3a aa3c 100b 673e 8efc ccbd 0622 81bd
00000140: 3920 32be 6519 ccbd 905b 2bbe c9b9 65be
00000150: 68b2 e5bd 0848 d23d 20dd b2bd 90b0 063e
00000160: 3af4 5ebd b725 843d c405 5b3d 9f2c 17be
00000170: e3f1 02be 342c 343d c454 593d 2006 193c
00000180: 91a7 e83c d156 ba3d b69f 5a3d ff4b 0e3c
00000190: 264c a5bd 562a dd3d 3cd2 96bc 9da7 72bd
000001a0: 76d9 773d d33d ddbd 9ac1 8fbd 3fc4 353e
000001b0: b903 203e 3c54 f53d 7735 75bd 75a6 7a3d
000001c0: e204 86be 5c89 7ebd 5ad2 483e eecb 1c3d
000001d0: 7e65 933d 87b5 c2bc e1ab 153e e999 bebd
000001e0: f38a 48bd a503 363e 43f1 423e 7e6d 23be
000001f0: 00f9 87bd 69ed 0a3e ac85 e9bd 5533 8b3d
00000200: 59a0 93bd 3ba8 0f3e cba8 f43d 4af8 c1bc
00000210: 3696 073e 3326 103e c308 a0bd 567d 47be
00000220: 69ec d23d 504e d5bd 735c 203e 863e 1f3e
00000230: 428a 65be 1ed9 403e 6b7f 033e 2d3a 3b3e
00000240: 4508 573e 6dc1 8fbd b901 473e 1413 9dbd
00000250: b019 2c3e b4d7 e03d 94c4 033d c432 883e
00000260: e070 123d 6bed 253e 93a6 d83c 503f 15bd
00000270: b22f 09bd 1e6b b3bd 09ba 3d3e fc38 bfbb
00000280: f85c bbbb 5ab3 2b3e 63a2 14be aece 053e
00000290: 2620 443d 259a 47bd cf62 84bd 76bd 133e
000002a0: 9f6d 24bd f98b 513e 1b93 eb3d 8a73 693d
000002b0: eb20 243d 7b72 b33d b7ec 7cbd c1ce 94bd
000002c0: 95db 11bd 0e58 6fbe 0364 293e 41a1 c93d
000002d0: 0897 183e db84 f03d 48b0 253e df88 613e
000002e0: 4658 103e 2583 f4bd 2932 da3d a105 8b3c
000002f0: a698 1d3d 8666 05bc c556 cbbd e186 033e
00000300: 5c66 383e 5d12 43bd 3e02 ffbc f2f9 57bd
00000310: 2d71 b1bd 4b7c 2cbd a317 22bc c89a 3ebd
0.008128135 -0.09019842 0.05860261 0.139521 -0.12030493 0.095766835 0.023271706 -0.1396447
-0.18825974 -0.10673591 0.01735375 -0.1691371 0.12455395 0.05216194 -0.18529895 -0.14917266
-0.15440693 0.07077718 -0.12001503 -0.015398361 0.013081997 -0.0911139 -0.14496285 0.17960101
0.053571597 -0.111454494 -0.029325536 -0.17906894 0.10240711 -0.12450536 -0.10333083 0.06431885
-0.17938153 -0.094885595 0.07860419 0.17371185 -0.08722074 0.020619469 -0.16016883 -0.16275719
0.3012772 -0.22813281 -0.12364018 -0.08329971 -0.14658834 -0.0057038376 -0.18185157 -0.021894677
-0.10742585 -0.08492681 0.0068125017 -0.11217073 -0.13325952 -0.10705758 0.09678965 0.07249698
0.018197063 0.034694247 -0.25410452 0.058113497 0.07433511 -0.07727333 0.117462955 -0.062227204
-0.12501831 0.020086853 0.06272483 -0.0721774 0.13059723 -0.11477898 -0.12160321 -0.17017317
-0.10662061 0.029755583 0.044326864 0.029124089 0.02077975 0.22562814 -0.100091085 -0.063053176
-0.17395104 -0.09965781 -0.16734147 -0.22434153 -0.11215669 0.10267645 -0.087335825 0.13153291
-0.05443213 0.06452506 0.053472295 -0.14763115 -0.12787585 0.043987468 0.053059354 0.009339839
0.028400214 0.0909859 0.05337497 0.008685111 -0.08071165 0.107990906 -0.018410794 -0.05924188
0.06051012 -0.10802808 -0.070193484 0.17750643 0.1562642 0.11978957 -0.05986544 0.061193902
-0.261756 -0.062142715 0.19611493 0.03828042 0.071970925 -0.0237682 0.14616348 -0.093067
-0.048960637 0.17774828 0.19037347 -0.15959737 -0.0663929 0.13567127 -0.11402449 0.067969
-0.07208318 0.14029019 0.11946257 -0.023677964 0.13240895 0.14077072 -0.07814171 -0.19481406
0.10298998 -0.104153275 0.15660267 0.15551195 -0.22416022 0.18832824 0.12841575 0.18283911
0.20999248 -0.07019315 0.19434251 -0.076696545 0.16806674 0.10978642 0.032169893 0.2660123
0.035752177 0.16203849 0.026446616 -0.036437333 -0.03349275 -0.08760665 0.18527998 -0.0058356505
-0.00571787 0.16767636 -0.1451507 0.13067123 0.04788222 -0.048730988 -0.06464159 0.14427742
-0.040143605 0.20463552 0.115026675 0.056994952 0.040070456 0.0876207 -0.061749186 -0.07265998
-0.0356098 -0.23373434 0.16542058 0.0984521 0.14901364 0.1174409 0.16180527 0.22024868
0.14096174 -0.11939076 0.106540985 0.016970458 0.038475655 -0.008142119 -0.09928659 0.12844421
0.18007797 -0.047624934 -0.031128999 -0.0527286 -0.08664165 -0.042110723 -0.009893331 -0.04653433
